tf_model.onnx (onnx, 1389 bytes, 4 tensors)

sequential/dense_1/MatMul/ReadVariableOp:0 f4 [10, 3]
0.1315149 0.16974872 -0.37139946 -0.6752931 -0.35729986 0.97057027 0.017740011 0.4749074
-0.49438256 -0.103494 0.04916458 -0.33508947 -0.39081872 0.47481078 -0.18339048 0.09659581
0.057334624 0.26422825 1.0278059 0.15341589 -0.6009151 0.4995085 -0.5960577 0.60596323
0.31932387 -0.5050803 0.36361894 -0.19582473 -0.3781732 -0.10231521
00000000: d8ab 063e 9cd2 2d3e 1228 bebe 02e0 2cbf
00000010: 02f0 b6be 4b77 783f 8053 913c 1027 f33e
00000020: b61f fdbe aaf4 d3bd cc60 493d d990 abbe
00000030: 6419 c8be 661a f33e b7ca 3bbe 06d4 c53d
00000040: b6d7 6a3d ed48 873e 258f 833f 0e19 1d3e
00000050: 92d5 19bf 94bf ff3e 3d97 18bf 6820 1b3f
00000060: 6b7e a33e f14c 01bf 432c ba3e 4786 48be
00000070: eb9f c1be a38a d1bd

sequential/dense_1/BiasAdd/ReadVariableOp:0 f4 [3]
0.10308315 0.09206808 -0.15497784
00000000: 421d d33d 318e bc3d 83b2 1ebe

sequential/dense/MatMul/ReadVariableOp:0 f4 [4, 10]
-0.5272951 -0.5284997 -0.6430337 0.6660135 0.62644804 0.43879667 0.38463023 -0.37536907
0.3504797 -0.09071063 0.06633419 0.3715611 -0.62818927 -0.20368804 -0.61483383 -0.45429587
0.8949546 -0.5084004 -0.014829684 0.22406547 -0.2996609 0.8420341 -0.11565149 -0.06635377
0.56813246 0.23739414 -0.8727395 -0.08107048 -0.18238647 0.28898677 -0.4616419 0.5368842
-0.6116888 -0.13443442 0.082452655 0.53835386 -0.042293474 -0.45805222 -0.12821934 0.36844188
00000000: d0fc 06bf c24b 07bf db9d 24bf dc7f 2a3f
00000010: e65e 203f f5a9 e03e 41ee c43e 6030 c0be
00000020: 1372 b33e 7fc6 b9bd 38da 873d 423d be3e
00000030: 03d1 20bf 9993 50be c065 1dbf 7899 e8be
00000040: bf1b 653f 8726 02bf 34f8 72bc 6b71 653e
00000050: 276d 99be 8c8f 573f b0da ecbd 7ce4 87bd
00000060: 2171 113f 7317 733e db6b 5fbf 4808 a6bd
00000070: 85c3 3abe 13f6 933e 545c ecbe 3e71 093f
00000080: a397 1cbf 2da9 09be f0dc a83d 8fd1 093f
00000090: ec3b 2dbd d285 eabe ee4b 03be 6aa4 bc3e

sequential/dense/BiasAdd/ReadVariableOp:0 f4 [10]
0.0 -0.121657446 0.0 0.12712453 0.07692087 -0.09247765 0.3201711 0.0
-0.09804912 -0.077157505
00000000: 0000 0000 8a27 f9bd 0000 0000 ef2c 023e
00000010: b088 9d3d ec64 bdbd 77ed a33e 0000 0000
00000020: facd c8bd c104 9ebd
