sklearn-example/model/logistic/deploy_model.onnx (onnx, 1972 bytes, 4 tensors)

_operators.0.offset f8 [4]
5.842857360839844 3.009523868560791 3.870476245880127 1.239047646522522
00000000: 0000 0000 165f 1740 0000 0040 8113 0840
00000010: 0000 0040 bcf6 0e40 0000 00a0 23d3 f33f

_operators.0.scale f8 [4]
1.205797791481018 2.3985984325408936 0.5837240815162659 1.3528591394424438
00000000: 0000 00a0 f24a f33f 0000 0060 5430 0340
00000010: 0000 0020 dead e23f 0000 00a0 4fa5 f53f

_operators.1.coefficients f4 [4, 3]
-0.9622914 0.48511907 0.47717234 1.0270926 -0.3432642 -0.68382835 -1.7417753 -0.30050695
2.0422823 -1.597491 -0.66873115 2.2662222
00000000: bb58 76bf 8761 f83e ef4f f43e c577 833f
00000010: 53c0 afbe 600f 2fbf 7ef2 debf 0cdc 99be
00000020: c1b4 0240 967a ccbf f731 2bbf c909 1140

_operators.1.intercepts f4 [3]
-0.6000257 1.8372275 -1.2372017
00000000: 499b 19bf 452a eb3f a05c 9ebf
